{"config": {"output_layers": [["pred_gender", 0, 0], ["pred_age", 0, 0]], "input_layers": [["input_1", 0, 0]], "layers": [{"config": {"dtype": "float32", "batch_input_shape": [null, 64, 64, 3], "sparse": false, "name": "input_1"}, "class_name": "InputLayer", "inbound_nodes": [], "name": "input_1"}, {"config": {"bias_initializer": {"config": {}, "class_name": "Zeros"}, "kernel_constraint": null, "dilation_rate": [1, 1], "name": "conv2d_1", "filters": 16, "kernel_size": [3, 3], "kernel_initializer": {"config": {"mode": "fan_in", "distribution": "normal", "scale": 2.0, "seed": null}, "class_name": "VarianceScaling"}, "padding": "same", "activation": "linear", "strides": [1, 1], "activity_regularizer": null, "kernel_regularizer": {"config": {"l2": 0.0005000000237487257, "l1": 0.0}, "class_name": "L1L2"}, "bias_constraint": null, "bias_regularizer": null, "trainable": true, "data_format": "channels_last", "use_bias": false}, "class_name": "Conv2D", "inbound_nodes": [[["input_1", 0, 0, {}]]], "name": "conv2d_1"}, {"config": {"moving_variance_initializer": {"config": {}, "class_name": "Ones"}, "beta_constraint": null, "momentum": 0.99, "gamma_constraint": null, "axis": -1, "moving_mean_initializer": {"config": {}, "class_name": "Zeros"}, "center": true, "scale": true, "beta_regularizer": null, "gamma_regularizer": null, "name": "batch_normalization_1", "beta_initializer": {"config": {}, "class_name": "Zeros"}, "trainable": true, "gamma_initializer": {"config": {}, "class_name": "Ones"}, "epsilon": 0.001}, "class_name": "BatchNormalization", "inbound_nodes": [[["conv2d_1", 0, 0, {}]]], "name": "batch_normalization_1"}, {"config": {"trainable": true, "activation": "relu", "name": "activation_1"}, "class_name": "Activation", "inbound_nodes": [[["batch_normalization_1", 0, 0, {}]]], "name": "activation_1"}, {"config": {"bias_initializer": {"config": {}, "class_name": "Zeros"}, "kernel_constraint": null, "dilation_rate": [1, 1], "name": "conv2d_2", "filters": 128, "kernel_size": [3, 3], "kernel_initializer": {"config": {"mode": "fan_in", "distribution": "normal", "scale": 2.0, "seed": null}, "class_name": "VarianceScaling"}, "padding": "same", "activation": "linear", "strides": [1, 1], "activity_regularizer": null, "kernel_regularizer": {"config": {"l2": 0.0005000000237487257, "l1": 0.0}, "class_name": "L1L2"}, "bias_constraint": null, "bias_regularizer": null, "trainable": true, "data_format": "channels_last", "use_bias": false}, "class_name": "Conv2D", "inbound_nodes": [[["activation_1", 0, 0, {}]]], "name": "conv2d_2"}, {"config": {"moving_variance_initializer": {"config": {}, "class_name": "Ones"}, "beta_constraint": null, "momentum": 0.99, "gamma_constraint": null, "axis": -1, "moving_mean_initializer": {"config": {}, "class_name": "Zeros"}, "center": true, "scale": true, "beta_regularizer": null, "gamma_regularizer": null, "name": "batch_normalization_2", "beta_initializer": {"config": {}, "class_name": "Zeros"}, "trainable": true, "gamma_initializer": {"config": {}, "class_name": "Ones"}, "epsilon": 0.001}, "class_name": "BatchNormalization", "inbound_nodes": [[["conv2d_2", 0, 0, {}]]], "name": "batch_normalization_2"}, {"config": {"trainable": true, "activation": "relu", "name": "activation_2"}, "class_name": "Activation", "inbound_nodes": [[["batch_normalization_2", 0, 0, {}]]], "name": "activation_2"}, {"config": {"bias_initializer": {"config": {}, "class_name": "Zeros"}, "kernel_constraint": null, "dilation_rate": [1, 1], "name": "conv2d_3", "filters": 128, "kernel_size": [3, 3], "kernel_initializer": {"config": {"mode": "fan_in", "distribution": "normal", "scale": 2.0, "seed": null}, "class_name": "VarianceScaling"}, "padding": "same", "activation": "linear", "strides": [1, 1], "activity_regularizer": null, "kernel_regularizer": {"config": {"l2": 0.0005000000237487257, "l1": 0.0}, "class_name": "L1L2"}, "bias_constraint": null, "bias_regularizer": null, "trainable": true, "data_format": "channels_last", "use_bias": false}, "class_name": "Conv2D", "inbound_nodes": [[["activation_2", 0, 0, {}]]], "name": "conv2d_3"}, {"config": {"bias_initializer": {"config": {}, "class_name": "Zeros"}, "kernel_constraint": null, "dilation_rate": [1, 1], "name": "conv2d_4", "filters": 128, "kernel_size": [1, 1], "kernel_initializer": {"config": {"mode": "fan_in", "distribution": "normal", "scale": 2.0, "seed": null}, "class_name": "VarianceScaling"}, "padding": "same", "activation": "linear", "strides": [1, 1], "activity_regularizer": null, "kernel_regularizer": {"config": {"l2": 0.0005000000237487257, "l1": 0.0}, "class_name": "L1L2"}, "bias_constraint": null, "bias_regularizer": null, "trainable": true, "data_format": "channels_last", "use_bias": false}, "class_name": "Conv2D", "inbound_nodes": [[["activation_1", 0, 0, {}]]], "name": "conv2d_4"}, {"config": {"trainable": true, "name": "add_1"}, "class_name": "Add", "inbound_nodes": [[["conv2d_3", 0, 0, {}], ["conv2d_4", 0, 0, {}]]], "name": "add_1"}, {"config": {"moving_variance_initializer": {"config": {}, "class_name": "Ones"}, "beta_constraint": null, "momentum": 0.99, "gamma_constraint": null, "axis": -1, "moving_mean_initializer": {"config": {}, "class_name": "Zeros"}, "center": true, "scale": true, "beta_regularizer": null, "gamma_regularizer": null, "name": "batch_normalization_3", "beta_initializer": {"config": {}, "class_name": "Zeros"}, "trainable": true, "gamma_initializer": {"config": {}, "class_name": "Ones"}, "epsilon": 0.001}, "class_name": "BatchNormalization", "inbound_nodes": [[["add_1", 0, 0, {}]]], "name": "batch_normalization_3"}, {"config": {"trainable": true, "activation": "relu", "name": "activation_3"}, "class_name": "Activation", "inbound_nodes": [[["batch_normalization_3", 0, 0, {}]]], "name": "activation_3"}, {"config": {"bias_initializer": {"config": {}, "class_name": "Zeros"}, "kernel_constraint": null, "dilation_rate": [1, 1], "name": "conv2d_5", "filters": 128, "kernel_size": [3, 3], "kernel_initializer": {"config": {"mode": "fan_in", "distribution": "normal", "scale": 2.0, "seed": null}, "class_name": "VarianceScaling"}, "padding": "same", "activation": "linear", "strides": [1, 1], "activity_regularizer": null, "kernel_regularizer": {"config": {"l2": 0.0005000000237487257, "l1": 0.0}, "class_name": "L1L2"}, "bias_constraint": null, "bias_regularizer": null, "trainable": true, "data_format": "channels_last", "use_bias": false}, "class_name": "Conv2D", "inbound_nodes": [[["activation_3", 0, 0, {}]]], "name": "conv2d_5"}, {"config": {"moving_variance_initializer": {"config": {}, "class_name": "Ones"}, "beta_constraint": null, "momentum": 0.99, "gamma_constraint": null, "axis": -1, "moving_mean_initializer": {"config": {}, "class_name": "Zeros"}, "center": true, "scale": true, "beta_regularizer": null, "gamma_regularizer": null, "name": "batch_normalization_4", "beta_initializer": {"config": {}, "class_name": "Zeros"}, "trainable": true, "gamma_initializer": {"config": {}, "class_name": "Ones"}, "epsilon": 0.001}, "class_name": "BatchNormalization", "inbound_nodes": [[["conv2d_5", 0, 0, {}]]], "name": "batch_normalization_4"}, {"config": {"trainable": true, "activation": "relu", "name": "activation_4"}, "class_name": "Activation", "inbound_nodes": [[["batch_normalization_4", 0, 0, {}]]], "name": "activation_4"}, {"config": {"bias_initializer": {"config": {}, "class_name": "Zeros"}, "kernel_constraint": null, "dilation_rate": [1, 1], "name": "conv2d_6", "filters": 128, "kernel_size": [3, 3], "kernel_initializer": {"config": {"mode": "fan_in", "distribution": "normal", "scale": 2.0, "seed": null}, "class_name": "VarianceScaling"}, "padding": "same", "activation": "linear", "strides": [1, 1], "activity_regularizer": null, "kernel_regularizer": {"config": {"l2": 0.0005000000237487257, "l1": 0.0}, "class_name": "L1L2"}, "bias_constraint": null, "bias_regularizer": null, "trainable": true, "data_format": "channels_last", "use_bias": false}, "class_name": "Conv2D", "inbound_nodes": [[["activation_4", 0, 0, {}]]], "name": "conv2d_6"}, {"config": {"trainable": true, "name": "add_2"}, "class_name": "Add", "inbound_nodes": [[["conv2d_6", 0, 0, {}], ["add_1", 0, 0, {}]]], "name": "add_2"}, {"config": {"moving_variance_initializer": {"config": {}, "class_name": "Ones"}, "beta_constraint": null, "momentum": 0.99, "gamma_constraint": null, "axis": -1, "moving_mean_initializer": {"config": {}, "class_name": "Zeros"}, "center": true, "scale": true, "beta_regularizer": null, "gamma_regularizer": null, "name": "batch_normalization_5", "beta_initializer": {"config": {}, "class_name": "Zeros"}, "trainable": true, "gamma_initializer": {"config": {}, "class_name": "Ones"}, "epsilon": 0.001}, "class_name": "BatchNormalization", "inbound_nodes": [[["add_2", 0, 0, {}]]], "name": "batch_normalization_5"}, {"config": {"trainable": true, "activation": "relu", "name": "activation_5"}, "class_name": "Activation", "inbound_nodes": [[["batch_normalization_5", 0, 0, {}]]], "name": "activation_5"}, {"config": {"bias_initializer": {"config": {}, "class_name": "Zeros"}, "kernel_constraint": null, "dilation_rate": [1, 1], "name": "conv2d_7", "filters": 256, "kernel_size": [3, 3], "kernel_initializer": {"config": {"mode": "fan_in", "distribution": "normal", "scale": 2.0, "seed": null}, "class_name": "VarianceScaling"}, "padding": "same", "activation": "linear", "strides": [2, 2], "activity_regularizer": null, "kernel_regularizer": {"config": {"l2": 0.0005000000237487257, "l1": 0.0}, "class_name": "L1L2"}, "bias_constraint": null, "bias_regularizer": null, "trainable": true, "data_format": "channels_last", "use_bias": false}, "class_name": "Conv2D", "inbound_nodes": [[["activation_5", 0, 0, {}]]], "name": "conv2d_7"}, {"config": {"moving_variance_initializer": {"config": {}, "class_name": "Ones"}, "beta_constraint": null, "momentum": 0.99, "gamma_constraint": null, "axis": -1, "moving_mean_initializer": {"config": {}, "class_name": "Zeros"}, "center": true, "scale": true, "beta_regularizer": null, "gamma_regularizer": null, "name": "batch_normalization_6", "beta_initializer": {"config": {}, "class_name": "Zeros"}, "trainable": true, "gamma_initializer": {"config": {}, "class_name": "Ones"}, "epsilon": 0.001}, "class_name": "BatchNormalization", "inbound_nodes": [[["conv2d_7", 0, 0, {}]]], "name": "batch_normalization_6"}, {"config": {"trainable": true, "activation": "relu", "name": "activation_6"}, "class_name": "Activation", "inbound_nodes": [[["batch_normalization_6", 0, 0, {}]]], "name": "activation_6"}, {"config": {"bias_initializer": {"config": {}, "class_name": "Zeros"}, "kernel_constraint": null, "dilation_rate": [1, 1], "name": "conv2d_8", "filters": 256, "kernel_size": [3, 3], "kernel_initializer": {"config": {"mode": "fan_in", "distribution": "normal", "scale": 2.0, "seed": null}, "class_name": "VarianceScaling"}, "padding": "same", "activation": "linear", "strides": [1, 1], "activity_regularizer": null, "kernel_regularizer": {"config": {"l2": 0.0005000000237487257, "l1": 0.0}, "class_name": "L1L2"}, "bias_constraint": null, "bias_regularizer": null, "trainable": true, "data_format": "channels_last", "use_bias": false}, "class_name": "Conv2D", "inbound_nodes": [[["activation_6", 0, 0, {}]]], "name": "conv2d_8"}, {"config": {"bias_initializer": {"config": {}, "class_name": "Zeros"}, "kernel_constraint": null, "dilation_rate": [1, 1], "name": "conv2d_9", "filters": 256, "kernel_size": [1, 1], "kernel_initializer": {"config": {"mode": "fan_in", "distribution": "normal", "scale": 2.0, "seed": null}, "class_name": "VarianceScaling"}, "padding": "same", "activation": "linear", "strides": [2, 2], "activity_regularizer": null, "kernel_regularizer": {"config": {"l2": 0.0005000000237487257, "l1": 0.0}, "class_name": "L1L2"}, "bias_constraint": null, "bias_regularizer": null, "trainable": true, "data_format": "channels_last", "use_bias": false}, "class_name": "Conv2D", "inbound_nodes": [[["activation_5", 0, 0, {}]]], "name": "conv2d_9"}, {"config": {"trainable": true, "name": "add_3"}, "class_name": "Add", "inbound_nodes": [[["conv2d_8", 0, 0, {}], ["conv2d_9", 0, 0, {}]]], "name": "add_3"}, {"config": {"moving_variance_initializer": {"config": {}, "class_name": "Ones"}, "beta_constraint": null, "momentum": 0.99, "gamma_constraint": null, "axis": -1, "moving_mean_initializer": {"config": {}, "class_name": "Zeros"}, "center": true, "scale": true, "beta_regularizer": null, "gamma_regularizer": null, "name": "batch_normalization_7", "beta_initializer": {"config": {}, "class_name": "Zeros"}, "trainable": true, "gamma_initializer": {"config": {}, "class_name": "Ones"}, "epsilon": 0.001}, "class_name": "BatchNormalization", "inbound_nodes": [[["add_3", 0, 0, {}]]], "name": "batch_normalization_7"}, {"config": {"trainable": true, "activation": "relu", "name": "activation_7"}, "class_name": "Activation", "inbound_nodes": [[["batch_normalization_7", 0, 0, {}]]], "name": "activation_7"}, {"config": {"bias_initializer": {"config": {}, "class_name": "Zeros"}, "kernel_constraint": null, "dilation_rate": [1, 1], "name": "conv2d_10", "filters": 256, "kernel_size": [3, 3], "kernel_initializer": {"config": {"mode": "fan_in", "distribution": "normal", "scale": 2.0, "seed": null}, "class_name": "VarianceScaling"}, "padding": "same", "activation": "linear", "strides": [1, 1], "activity_regularizer": null, "kernel_regularizer": {"config": {"l2": 0.0005000000237487257, "l1": 0.0}, "class_name": "L1L2"}, "bias_constraint": null, "bias_regularizer": null, "trainable": true, "data_format": "channels_last", "use_bias": false}, "class_name": "Conv2D", "inbound_nodes": [[["activation_7", 0, 0, {}]]], "name": "conv2d_10"}, {"config": {"moving_variance_initializer": {"config": {}, "class_name": "Ones"}, "beta_constraint": null, "momentum": 0.99, "gamma_constraint": null, "axis": -1, "moving_mean_initializer": {"config": {}, "class_name": "Zeros"}, "center": true, "scale": true, "beta_regularizer": null, "gamma_regularizer": null, "name": "batch_normalization_8", "beta_initializer": {"config": {}, "class_name": "Zeros"}, "trainable": true, "gamma_initializer": {"config": {}, "class_name": "Ones"}, "epsilon": 0.001}, "class_name": "BatchNormalization", "inbound_nodes": [[["conv2d_10", 0, 0, {}]]], "name": "batch_normalization_8"}, {"config": {"trainable": true, "activation": "relu", "name": "activation_8"}, "class_name": "Activation", "inbound_nodes": [[["batch_normalization_8", 0, 0, {}]]], "name": "activation_8"}, {"config": {"bias_initializer": {"config": {}, "class_name": "Zeros"}, "kernel_constraint": null, "dilation_rate": [1, 1], "name": "conv2d_11", "filters": 256, "kernel_size": [3, 3], "kernel_initializer": {"config": {"mode": "fan_in", "distribution": "normal", "scale": 2.0, "seed": null}, "class_name": "VarianceScaling"}, "padding": "same", "activation": "linear", "strides": [1, 1], "activity_regularizer": null, "kernel_regularizer": {"config": {"l2": 0.0005000000237487257, "l1": 0.0}, "class_name": "L1L2"}, "bias_constraint": null, "bias_regularizer": null, "trainable": true, "data_format": "channels_last", "use_bias": false}, "class_name": "Conv2D", "inbound_nodes": [[["activation_8", 0, 0, {}]]], "name": "conv2d_11"}, {"config": {"trainable": true, "name": "add_4"}, "class_name": "Add", "inbound_nodes": [[["conv2d_11", 0, 0, {}], ["add_3", 0, 0, {}]]], "name": "add_4"}, {"config": {"moving_variance_initializer": {"config": {}, "class_name": "Ones"}, "beta_constraint": null, "momentum": 0.99, "gamma_constraint": null, "axis": -1, "moving_mean_initializer": {"config": {}, "class_name": "Zeros"}, "center": true, "scale": true, "beta_regularizer": null, "gamma_regularizer": null, "name": "batch_normalization_9", "beta_initializer": {"config": {}, "class_name": "Zeros"}, "trainable": true, "gamma_initializer": {"config": {}, "class_name": "Ones"}, "epsilon": 0.001}, "class_name": "BatchNormalization", "inbound_nodes": [[["add_4", 0, 0, {}]]], "name": "batch_normalization_9"}, {"config": {"trainable": true, "activation": "relu", "name": "activation_9"}, "class_name": "Activation", "inbound_nodes": [[["batch_normalization_9", 0, 0, {}]]], "name": "activation_9"}, {"config": {"bias_initializer": {"config": {}, "class_name": "Zeros"}, "kernel_constraint": null, "dilation_rate": [1, 1], "name": "conv2d_12", "filters": 512, "kernel_size": [3, 3], "kernel_initializer": {"config": {"mode": "fan_in", "distribution": "normal", "scale": 2.0, "seed": null}, "class_name": "VarianceScaling"}, "padding": "same", "activation": "linear", "strides": [2, 2], "activity_regularizer": null, "kernel_regularizer": {"config": {"l2": 0.0005000000237487257, "l1": 0.0}, "class_name": "L1L2"}, "bias_constraint": null, "bias_regularizer": null, "trainable": true, "data_format": "channels_last", "use_bias": false}, "class_name": "Conv2D", "inbound_nodes": [[["activation_9", 0, 0, {}]]], "name": "conv2d_12"}, {"config": {"moving_variance_initializer": {"config": {}, "class_name": "Ones"}, "beta_constraint": null, "momentum": 0.99, "gamma_constraint": null, "axis": -1, "moving_mean_initializer": {"config": {}, "class_name": "Zeros"}, "center": true, "scale": true, "beta_regularizer": null, "gamma_regularizer": null, "name": "batch_normalization_10", "beta_initializer": {"config": {}, "class_name": "Zeros"}, "trainable": true, "gamma_initializer": {"config": {}, "class_name": "Ones"}, "epsilon": 0.001}, "class_name": "BatchNormalization", "inbound_nodes": [[["conv2d_12", 0, 0, {}]]], "name": "batch_normalization_10"}, {"config": {"trainable": true, "activation": "relu", "name": "activation_10"}, "class_name": "Activation", "inbound_nodes": [[["batch_normalization_10", 0, 0, {}]]], "name": "activation_10"}, {"config": {"bias_initializer": {"config": {}, "class_name": "Zeros"}, "kernel_constraint": null, "dilation_rate": [1, 1], "name": "conv2d_13", "filters": 512, "kernel_size": [3, 3], "kernel_initializer": {"config": {"mode": "fan_in", "distribution": "normal", "scale": 2.0, "seed": null}, "class_name": "VarianceScaling"}, "padding": "same", "activation": "linear", "strides": [1, 1], "activity_regularizer": null, "kernel_regularizer": {"config": {"l2": 0.0005000000237487257, "l1": 0.0}, "class_name": "L1L2"}, "bias_constraint": null, "bias_regularizer": null, "trainable": true, "data_format": "channels_last", "use_bias": false}, "class_name": "Conv2D", "inbound_nodes": [[["activation_10", 0, 0, {}]]], "name": "conv2d_13"}, {"config": {"bias_initializer": {"config": {}, "class_name": "Zeros"}, "kernel_constraint": null, "dilation_rate": [1, 1], "name": "conv2d_14", "filters": 512, "kernel_size": [1, 1], "kernel_initializer": {"config": {"mode": "fan_in", "distribution": "normal", "scale": 2.0, "seed": null}, "class_name": "VarianceScaling"}, "padding": "same", "activation": "linear", "strides": [2, 2], "activity_regularizer": null, "kernel_regularizer": {"config": {"l2": 0.0005000000237487257, "l1": 0.0}, "class_name": "L1L2"}, "bias_constraint": null, "bias_regularizer": null, "trainable": true, "data_format": "channels_last", "use_bias": false}, "class_name": "Conv2D", "inbound_nodes": [[["activation_9", 0, 0, {}]]], "name": "conv2d_14"}, {"config": {"trainable": true, "name": "add_5"}, "class_name": "Add", "inbound_nodes": [[["conv2d_13", 0, 0, {}], ["conv2d_14", 0, 0, {}]]], "name": "add_5"}, {"config": {"moving_variance_initializer": {"config": {}, "class_name": "Ones"}, "beta_constraint": null, "momentum": 0.99, "gamma_constraint": null, "axis": -1, "moving_mean_initializer": {"config": {}, "class_name": "Zeros"}, "center": true, "scale": true, "beta_regularizer": null, "gamma_regularizer": null, "name": "batch_normalization_11", "beta_initializer": {"config": {}, "class_name": "Zeros"}, "trainable": true, "gamma_initializer": {"config": {}, "class_name": "Ones"}, "epsilon": 0.001}, "class_name": "BatchNormalization", "inbound_nodes": [[["add_5", 0, 0, {}]]], "name": "batch_normalization_11"}, {"config": {"trainable": true, "activation": "relu", "name": "activation_11"}, "class_name": "Activation", "inbound_nodes": [[["batch_normalization_11", 0, 0, {}]]], "name": "activation_11"}, {"config": {"bias_initializer": {"config": {}, "class_name": "Zeros"}, "kernel_constraint": null, "dilation_rate": [1, 1], "name": "conv2d_15", "filters": 512, "kernel_size": [3, 3], "kernel_initializer": {"config": {"mode": "fan_in", "distribution": "normal", "scale": 2.0, "seed": null}, "class_name": "VarianceScaling"}, "padding": "same", "activation": "linear", "strides": [1, 1], "activity_regularizer": null, "kernel_regularizer": {"config": {"l2": 0.0005000000237487257, "l1": 0.0}, "class_name": "L1L2"}, "bias_constraint": null, "bias_regularizer": null, "trainable": true, "data_format": "channels_last", "use_bias": false}, "class_name": "Conv2D", "inbound_nodes": [[["activation_11", 0, 0, {}]]], "name": "conv2d_15"}, {"config": {"moving_variance_initializer": {"config": {}, "class_name": "Ones"}, "beta_constraint": null, "momentum": 0.99, "gamma_constraint": null, "axis": -1, "moving_mean_initializer": {"config": {}, "class_name": "Zeros"}, "center": true, "scale": true, "beta_regularizer": null, "gamma_regularizer": null, "name": "batch_normalization_12", "beta_initializer": {"config": {}, "class_name": "Zeros"}, "trainable": true, "gamma_initializer": {"config": {}, "class_name": "Ones"}, "epsilon": 0.001}, "class_name": "BatchNormalization", "inbound_nodes": [[["conv2d_15", 0, 0, {}]]], "name": "batch_normalization_12"}, {"config": {"trainable": true, "activation": "relu", "name": "activation_12"}, "class_name": "Activation", "inbound_nodes": [[["batch_normalization_12", 0, 0, {}]]], "name": "activation_12"}, {"config": {"bias_initializer": {"config": {}, "class_name": "Zeros"}, "kernel_constraint": null, "dilation_rate": [1, 1], "name": "conv2d_16", "filters": 512, "kernel_size": [3, 3], "kernel_initializer": {"config": {"mode": "fan_in", "distribution": "normal", "scale": 2.0, "seed": null}, "class_name": "VarianceScaling"}, "padding": "same", "activation": "linear", "strides": [1, 1], "activity_regularizer": null, "kernel_regularizer": {"config": {"l2": 0.0005000000237487257, "l1": 0.0}, "class_name": "L1L2"}, "bias_constraint": null, "bias_regularizer": null, "trainable": true, "data_format": "channels_last", "use_bias": false}, "class_name": "Conv2D", "inbound_nodes": [[["activation_12", 0, 0, {}]]], "name": "conv2d_16"}, {"config": {"trainable": true, "name": "add_6"}, "class_name": "Add", "inbound_nodes": [[["conv2d_16", 0, 0, {}], ["add_5", 0, 0, {}]]], "name": "add_6"}, {"config": {"moving_variance_initializer": {"config": {}, "class_name": "Ones"}, "beta_constraint": null, "momentum": 0.99, "gamma_constraint": null, "axis": -1, "moving_mean_initializer": {"config": {}, "class_name": "Zeros"}, "center": true, "scale": true, "beta_regularizer": null, "gamma_regularizer": null, "name": "batch_normalization_13", "beta_initializer": {"config": {}, "class_name": "Zeros"}, "trainable": true, "gamma_initializer": {"config": {}, "class_name": "Ones"}, "epsilon": 0.001}, "class_name": "BatchNormalization", "inbound_nodes": [[["add_6", 0, 0, {}]]], "name": "batch_normalization_13"}, {"config": {"trainable": true, "activation": "relu", "name": "activation_13"}, "class_name": "Activation", "inbound_nodes": [[["batch_normalization_13", 0, 0, {}]]], "name": "activation_13"}, {"config": {"strides": [1, 1], "pool_size": [8, 8], "padding": "same", "trainable": true, "data_format": "channels_last", "name": "average_pooling2d_1"}, "class_name": "AveragePooling2D", "inbound_nodes": [[["activation_13", 0, 0, {}]]], "name": "average_pooling2d_1"}, {"config": {"trainable": true, "name": "flatten_1"}, "class_name": "Flatten", "inbound_nodes": [[["average_pooling2d_1", 0, 0, {}]]], "name": "flatten_1"}, {"config": {"bias_initializer": {"config": {}, "class_name": "Zeros"}, "kernel_constraint": null, "use_bias": false, "units": 2, "kernel_initializer": {"config": {"mode": "fan_in", "distribution": "normal", "scale": 2.0, "seed": null}, "class_name": "VarianceScaling"}, "activity_regularizer": null, "activation": "softmax", "kernel_regularizer": {"config": {"l2": 0.0005000000237487257, "l1": 0.0}, "class_name": "L1L2"}, "bias_constraint": null, "bias_regularizer": null, "trainable": true, "name": "pred_gender"}, "class_name": "Dense", "inbound_nodes": [[["flatten_1", 0, 0, {}]]], "name": "pred_gender"}, {"config": {"bias_initializer": {"config": {}, "class_name": "Zeros"}, "kernel_constraint": null, "use_bias": false, "units": 101, "kernel_initializer": {"config": {"mode": "fan_in", "distribution": "normal", "scale": 2.0, "seed": null}, "class_name": "VarianceScaling"}, "activity_regularizer": null, "activation": "softmax", "kernel_regularizer": {"config": {"l2": 0.0005000000237487257, "l1": 0.0}, "class_name": "L1L2"}, "bias_constraint": null, "bias_regularizer": null, "trainable": true, "name": "pred_age"}, "class_name": "Dense", "inbound_nodes": [[["flatten_1", 0, 0, {}]]], "name": "pred_age"}], "name": "model_1"}, "class_name": "Model", "backend": "tensorflow", "keras_version": "2.0.8"}